case_studies/health_wearable/firmware/firmware/bp_estimator.tflite (tflite, 74972 bytes, 10 tensors)

arith.constant f4 [16]
0	0x3bec8572	0.0072180564
1	0xbc8b28c3	-0.01698721
2	0x3c924636	0.017855745
3	0xbc32a330	-0.010903165
4	0x3c8a280b	0.016864797
5	0x3d8df75b	0.06931945
6	0x3cfe5259	0.031045126
7	0x3dddb583	0.10825636
8	0x3cbb6c5c	0.022878818
9	0x3c5b330d	0.013378871
10	0x3d521a12	0.051294394
11	0x3db468d5	0.088090576
12	0x00000000	0.0
13	0x3bc422d0	0.0059855953
14	0x3daa11d9	0.083041854
15	0x3cda4aff	0.026647089

arith.constant1 f4 [8]
0	0xbc64d3af	-0.013966485
1	0x3be21d7f	0.006900489
2	0x3dc2db36	0.095144674
3	0xbd2d14fd	-0.042256344
4	0xbc6443d9	-0.013932192
5	0x3ce0486a	0.02737828
6	0x3dc520cb	0.096253954
7	0x00000000	0.0

arith.constant5 f4 [16, 1, 3, 8]
0	0xbe88bccf	-0.2670655
1	0x3cb1df9a	0.021713067
2	0x3e86512d	0.26233807
3	0xbd8181cb	-0.06323584
4	0xbe6d8ac4	-0.23197466
5	0x3e475d78	0.19469249
6	0x3e01f3e8	0.12690699
7	0x3d05e788	0.03269151
8	0x3de98ea4	0.1140416
9	0xbe41b2cf	-0.18915866
10	0x3e13bdcd	0.14427872
11	0xbe337608	-0.17525494
12	0xbe731f6a	-0.23742452
13	0xbde71386	-0.11283021
14	0xbddd53ed	-0.10807023
15	0x3e1afe24	0.1513601
16	0xbe267683	-0.16256146
17	0xbcc1993c	-0.023632638
18	0xbe6ae702	-0.22939685
19	0x3dbf9700	0.09354973
20	0xbe6a6ba8	-0.2289263
21	0x3e44f27d	0.19233127
22	0x3d4251c2	0.04744125
23	0xbe5be9bb	-0.2147588
24	0xbe93c03c	-0.288576
25	0x3e7dbc02	0.2477875
26	0xbe9775b1	-0.2958198
27	0x3e0b43a0	0.13600016
28	0x3e8ba5ea	0.2727502
29	0x3e18cf80	0.14922905
30	0x3b393b6d	0.002826418
31	0x3cf5dd50	0.030012757
32	0xbec212bc	-0.37904918
33	0x3e3385dd	0.17531534
34	0xbe082441	-0.1329508
35	0x3e5d2ba8	0.21598685
36	0x3e861da5	0.26194492
37	0x3e0f7ec6	0.14013204
38	0xbe0a9cf4	-0.13536435
39	0x3e55fe74	0.20897847
40	0xbe1b1829	-0.15145935
41	0xbc6f66c8	-0.014611907
42	0xbd94ed45	-0.07271818
43	0xbe9592d4	-0.29213583
44	0x3c34afe1	0.011028261
45	0x3d0c55f0	0.034261644
46	0xbe31e685	-0.17373092
47	0x3e1195ee	0.1421735
48	0xbe2120f9	-0.15735234
49	0x3e89e46c	0.26932085
50	0xbbf58592	-0.0074927295
51	0x3e4e1b1a	0.20127526
52	0x3ccb031e	0.02478176
53	0x3e2180f4	0.15771848
54	0xbd14081c	-0.036140546
55	0x3e912d70	0.2835498
56	0xbe847fa4	-0.25878632
57	0xbdb8c774	-0.09022418
58	0x3e917361	0.2840834
59	0x3e3c5ef6	0.183956
60	0xbe8124e3	-0.25223455
61	0x3e12cacb	0.14335172
62	0x3d46f6f4	0.048575357
63	0x3e67b590	0.22627854
64	0x3eaa6cf9	0.33286265
65	0xbde384ee	-0.11109339
66	0xbd7bc770	-0.061469495
67	0xbe8b8f8a	-0.2725795
68	0xbe831de6	-0.25608748
69	0xbe1b9a05	-0.15195473
70	0x3da6526f	0.08121192
71	0xbe2167f3	-0.1576231
72	0xbde174ae	-0.11008583
73	0x3e5cc971	0.21561219
74	0xbe82c176	-0.25538224
75	0xbc7c930f	-0.015415921
76	0xbdacc55c	-0.08436081
77	0xbce128ea	-0.02748533
78	0xbdeb0df7	-0.11477273
79	0x3e937efe	0.28807825
80	0xbe78140a	-0.24226394
81	0xbe5ff9ed	-0.21872683
82	0x3cd7d779	0.026347863
83	0x3d511351	0.051043812
84	0xbd7dfedb	-0.062010627
85	0xbe377e65	-0.1791931
86	0x3e665203	0.22492222
87	0xbca5da30	-0.020245641
88	0xbbdc2e16	-0.006719361
89	0xbcc576d5	-0.024104515
90	0x3e0ddefe	0.13854596
91	0x3d3a0a7b	0.04542015
92	0xbdb30ecb	-0.08743056
93	0x3e1c7341	0.15278341
94	0xbe8949f5	-0.26814237
95	0x3bc3af00	0.0059717894
96	0x3e52168e	0.20516416
97	0x3e2c39d0	0.16818929
98	0xbe358854	-0.17727786
99	0x3cff7416	0.031183284
100	0x3dae31ff	0.0850563
101	0xbe4cce40	-0.20000553
102	0xbd1713ed	-0.036884237
103	0x3e00b1ca	0.12567821
104	0xbe81a07a	-0.25317746
105	0x3c26a90d	0.010172141
106	0x3b3d32eb	0.002886946
107	0x3e534af2	0.20634058
108	0x3e3f49c9	0.1868049
109	0x3e5769c7	0.21036445
110	0x3d6d3400	0.05791092
111	0xbde2bb5e	-0.11070894
112	0xbe6ccbcd	-0.23124619
113	0x3e531c89	0.20616354
114	0x3db0d627	0.08634596
115	0xbe8e730c	-0.2782215
116	0x3e0314be	0.12800881
117	0xbdfa22d4	-0.12213674
118	0x3d36b976	0.044610463
119	0xbe10dfc1	-0.14147855
120	0xbde299d5	-0.110644974
121	0xbe38f27b	-0.18061249
122	0xbd51bed1	-0.051207367
123	0x3e85995f	0.26093575
124	0x3e0b9613	0.13631468
125	0xbe319590	-0.1734221
126	0x3e8c7f5d	0.2744092
127	0x3d0efb10	0.0349074
128	0x3c08f14d	0.008358312
129	0xbdf515db	-0.11967059
130	0x3d18dfaa	0.037322678
131	0xbdc485c9	-0.0959583
132	0x3e3e9889	0.18612875
133	0xbbb26c58	-0.0054450445
134	0x3d17503a	0.036941744
135	0x3e6b6dcc	0.22991103
136	0xbd91a95d	-0.071123816
137	0xbd5f2f23	-0.054488312
138	0x3e908a51	0.28230527
139	0xbea97ce7	-0.33103105
140	0xbe6fa520	-0.23402834
141	0x3d1bfed3	0.038084816
142	0xbd65b8ae	-0.056084327
143	0x3e685f08	0.22692502
144	0xbe2bb3f4	-0.16767865
145	0x3e78c323	0.24293189
146	0xbe4ec945	-0.20193966
147	0xbe6989d0	-0.22806478
148	0x3e9172da	0.28407937
149	0xbdc23586	-0.09482865
150	0x3df94f89	0.12173373
151	0x3c4aa580	0.01236856
152	0xbe9967f4	-0.29962122
153	0x3dd555d2	0.104167596
154	0x3df07b28	0.1174224
155	0x3d26a0d3	0.040680718
156	0x3ddf6976	0.10908787
157	0x3e85dcf2	0.2614513
158	0x3c7c4e6b	0.015399556
159	0x3dd820f4	0.1055316
160	0xbe5f7770	-0.21822906
161	0x3d1c7d89	0.038205657
162	0x3e4c2a06	0.19937906
163	0xbda4aa8d	-0.080403425
164	0xbdc3dda2	-0.095637575
165	0x3e6b85a6	0.23000202
166	0x3e8d39a2	0.27583033
167	0x3e5bb5b4	0.21456033
168	0xbe978f84	-0.2960168
169	0x3e75f1b5	0.24017985
170	0x3e0c92bb	0.13727848
171	0xbe48e97d	-0.19620319
172	0xbb763761	-0.003756963
173	0xbe74a868	-0.23892367
174	0x3dd1b812	0.10240187
175	0xbdf9d01e	-0.12197898
176	0xbe2216a9	-0.15828957
177	0xbe542c45	-0.20720012
178	0xbc48a635	-0.012246658
179	0x3d49e2b1	0.049288455
180	0xbd845d88	-0.06463152
181	0x3e92f0f8	0.2869947
182	0x3d0a6bc4	0.03379418
183	0x3e485dee	0.19567081
184	0xbe7a76f5	-0.24459441
185	0x3e3a9b06	0.18223199
186	0x3db09775	0.08622638
187	0x3dc2bba0	0.09508443
188	0xbe0bbd42	-0.13646415
189	0xbe26b6ff	-0.16280745
190	0x3d90a61b	0.07062932
191	0x3bac3840	0.005255729
192	0xbe2637d3	-0.16232233
193	0x3e946f48	0.2899115
194	0x3e123935	0.14279635
195	0xbe37a551	-0.17934157
196	0x3d939e3f	0.072079174
197	0x3e9a507a	0.30139524
198	0x3e11d6d1	0.14242102
199	0xbe6e26cc	-0.23256987
200	0xbe8e3ad8	-0.2777927
201	0xbd111472	-0.03541989
202	0xbe6b7e38	-0.22997367
203	0x3d5b127b	0.05348442
204	0x3dd2816c	0.102785915
205	0xbe978766	-0.29595488
206	0xbdd59663	-0.104290746
207	0xbe5ccdf2	-0.21562937
208	0x3d630825	0.05542769
209	0x3dbd5617	0.09244936
210	0xbe603805	-0.2189637
211	0x3d69cb9a	0.057078935
212	0xbe8f825c	-0.28029144
213	0xbcef3987	-0.029202236
214	0xbcd48eee	-0.02594706
215	0x3df8d82c	0.121506065
216	0x3ec29c90	0.38010073
217	0x3d2729b3	0.04081125
218	0xbec8002d	-0.39062634
219	0x3e78729e	0.24262473
220	0x3e5acccc	0.21367186
221	0x3dde48cb	0.10853728
222	0xbe11b910	-0.14230752
223	0xbe713046	-0.23553571
224	0xbead6c7a	-0.33871824
225	0x3dc7d211	0.09756864
226	0x3eab7fb9	0.33495882
227	0xbe81f40f	-0.25381514
228	0xbe70c4b0	-0.2351253
229	0x3cabb781	0.020961525
230	0x3eb1464e	0.3462395
231	0x3dc4eafc	0.09615132
232	0xbe8c29ad	-0.27375546
233	0xbe8babac	-0.27279413
234	0x3ca80132	0.020508382
235	0x3da7dd0a	0.08196457
236	0x3e555b2c	0.2083556
237	0xbe12eea3	-0.14348845
238	0xbe41dbdd	-0.18931527
239	0x3e03c330	0.12867427
240	0xbd56cfce	-0.05244427
241	0x3d7fa586	0.062413715
242	0x3ea04702	0.31304175
243	0x3e250eb8	0.16118896
244	0xbeb34c60	-0.35019207
245	0xbe7c0f16	-0.2461513
246	0x3e5831d5	0.2111276
247	0x3daf7420	0.08567071
248	0xbe981d87	-0.29710028
249	0xbdbff1ca	-0.093722895
250	0xbd6478b1	-0.055779163
251	0xbeccdc28	-0.40011716
252	0xbddd473f	-0.10804605
253	0xbe7c680d	-0.24649067
254	0x3e3cb53e	0.18428513
255	0x3e1e2264	0.15442806

arith.constant6 f4 [8, 1, 3, 1]
0	0xbe8ca42f	-0.27469012
1	0xbd15cddb	-0.036573272
2	0x3eafa002	0.34301764
3	0x3e79db6c	0.24400109
4	0x3e1e6549	0.15468325
5	0x3e282387	0.16419803
6	0x3d4d3881	0.050102714
7	0xbec2a125	-0.3801357
8	0x3e6c3a7c	0.23069185
9	0x3e5f3fce	0.21801683
10	0x3e80d210	0.25160265
11	0x3efbaae4	0.49153817
12	0x3eb4eb42	0.35335737
13	0x3ec4b420	0.38418674
14	0xbe07477f	-0.13210867
15	0x3ef19b97	0.47189018
16	0x3da5c048	0.08093315
17	0xbdc67530	-0.096903205
18	0x3c3fe670	0.011712655
19	0xbe9bd65b	-0.30436978
20	0x3e31b157	0.17352806
21	0xbd4603c8	-0.04834345
22	0xbe2dc23c	-0.16968626
23	0xbe9bfe1f	-0.30467317

arith.constant7 f4 [2, 16]
0	0xbe1ebe87	-0.15502368
1	0x3f02a357	0.51030487
2	0x3ea52561	0.3225508
3	0x3e0c9b68	0.13731158
4	0xbf1b55c7	-0.6067776
5	0x3d82d0a3	0.063874505
6	0xbe490d95	-0.19634087
7	0x3e242bff	0.16032408
8	0x3e84a6a1	0.25908378
9	0xbe293c9d	-0.16527028
10	0xbce00b20	-0.027349055
11	0x3efda3e4	0.495391
12	0xbee9d77f	-0.45672223
13	0x3aa30814	0.001243832
14	0xbe65d089	-0.22442831
15	0x3e80c24b	0.25148234
16	0x3e02fe6f	0.12792371
17	0x3d49c7cc	0.049262807
18	0x3ec1c395	0.3784453
19	0x3eb0fbc2	0.34567076
20	0xbef49331	-0.47768548
21	0x3e18b016	0.14910921
22	0xbdf613cc	-0.12015495
23	0x3c56c880	0.013109326
24	0x3e8b2bf0	0.2718196
25	0x3e1ef6d5	0.15523846
26	0x3dc79160	0.09744525
27	0xbefce60f	-0.4939427
28	0x3e4ad137	0.19806372
29	0xbe81395d	-0.25239077
30	0xbeb176d7	-0.3466098
31	0xbe652764	-0.22378308

arith.constant8 f4 [16, 32]
0	0x3ce11ed0	0.027480513
1	0xbdab3d38	-0.08361286
2	0x3d3915e8	0.045186907
3	0x3d89f6bc	0.06736514
4	0x3e293188	0.16522801
5	0x3c3e9820	0.011632949
6	0xbcc85dbe	-0.024458762
7	0x3e1dee02	0.15422824
8	0xbe87b8b2	-0.265081
9	0x3e9f69b3	0.3113533
10	0xbde2a524	-0.11066654
11	0x3da999d1	0.08281291
12	0xbe68542b	-0.22688358
13	0x3e8245cd	0.2544388
14	0xbe25d05a	-0.16192761
15	0xbda4edf3	-0.08053198
16	0x3c116257	0.008873544
17	0xbe5e6d98	-0.21721494
18	0x3e2bb3b1	0.16767766
19	0x3e2e1fbe	0.17004296
20	0x3e80b56f	0.25138423
21	0x3d89883c	0.06715438
22	0xbea4f8fe	-0.32221216
23	0xbd0b30db	-0.03398214
24	0x3eb1d915	0.34735933
25	0xbe48d780	-0.19613457
26	0x3d113289	0.035448585
27	0x3d859e05	0.065242805
28	0xbbac3c9e	-0.0052562496
29	0xbe949c01	-0.29025272
30	0xbe1a53b9	-0.15071
31	0x3e854741	0.26030925
32	0x3e625596	0.22102961
33	0xbd4be6e2	-0.049780734
34	0xbe54a6bc	-0.20766729
35	0xbe67f553	-0.22652178
36	0x3da05761	0.07829166
37	0x3c823d20	0.015898287
38	0x3e844a5d	0.25837985
39	0xbdd6e437	-0.10492747
40	0xbe688c46	-0.2270976
41	0x3ea68e62	0.32530504
42	0x3d3174f1	0.043324415
43	0x3df08c34	0.117454916
44	0x3d530f64	0.05152835
45	0x3d85fe30	0.06542623
46	0x3d867013	0.06564345
47	0x3cec5841	0.028850676
48	0xbdd81673	-0.10551157
49	0xbca6c990	-0.020359784
50	0x3b4bed4a	0.0031116777
51	0xbdebb500	-0.115091324
52	0xbe85091c	-0.25983512
53	0xbe8b5c76	-0.2721898
54	0x3e575544	0.2102862
55	0xbe323687	-0.17403613
56	0x3db31408	0.08744055
57	0xbe93ea4f	-0.288897
58	0x3e16c9d9	0.14725436
59	0x3e34b8c0	0.17648602
60	0x3da23667	0.07920533
61	0xbdadf244	-0.08493474
62	0xbea2049d	-0.31644145
63	0x3e069e6a	0.13146368
64	0x3e8a91b6	0.27064294
65	0xbe9dcbb7	-0.30819485
66	0xbe963bcd	-0.293425
67	0x3d825d09	0.06365401
68	0xbd1a2334	-0.03763123
69	0x3e9bf34b	0.30459055
70	0xbc93bc2f	-0.018034069
71	0xbda83a3b	-0.082142316
72	0x3e4c0ec9	0.19927515
73	0xbe52ffd7	-0.20605408
74	0x3e781120	0.24225283
75	0x3e5e06cb	0.21682279
76	0x3e991ef3	0.29906425
77	0x3e95dadf	0.29268548
78	0xbe2305ff	-0.15920256
79	0xbea1c93e	-0.31598848
80	0x3dc0c493	0.094124936
81	0xbda1d344	-0.07901624
82	0x3ea4a801	0.32159427
83	0x3e1d6815	0.15371735
84	0xbe2c834f	-0.16846965
85	0xbcae0988	-0.02124478
86	0xbdb8b15e	-0.09018205
87	0x3e3ea3ee	0.18617222
88	0xbe59b8b8	-0.21261871
89	0x3ea9ed4f	0.33188865
90	0x3da0ce80	0.07851887
91	0xbea7a641	-0.3274403
92	0x3dad8665	0.08472899
93	0xbdaccbd7	-0.08437317
94	0x3eb0b25b	0.34511074
95	0xbdd2d2c5	-0.10294107
96	0x3ea50ed9	0.3223789
97	0xbe7dd2a0	-0.24787378
98	0x3c23ae20	0.009990245
99	0x3d367218	0.044542402
100	0x3ea13e27	0.3149273
101	0xbe87d2ea	-0.26528102
102	0xbe0ce1ac	-0.13757962
103	0xbe0e6141	-0.13904287
104	0x3da553c8	0.08072621
105	0x3dd73150	0.105074525
106	0xbe225828	-0.15853941
107	0x3e993a1b	0.29927143
108	0xbe0440cd	-0.12915345
109	0xbe32350c	-0.17403048
110	0x3dda1dcc	0.106502146
111	0x3eaa7909	0.33295467
112	0xbeb34b05	-0.35018173
113	0x3e9c4def	0.3052821
114	0x3df06024	0.11737087
115	0x3e80aed9	0.25133398
116	0xbe712d24	-0.23552376
117	0xbe7d14f8	-0.2471503
118	0xbd03d188	-0.032182246
119	0x3e822cf3	0.2542492
120	0xbc093da0	-0.008376509
121	0x3e86abb9	0.2630289
122	0xbc9109a0	-0.017704785
123	0xbeb2f4e8	-0.34952474
124	0xbe534f8c	-0.20635813
125	0xbcb5cc80	-0.02219224
126	0xbdf1151e	-0.11771606
127	0x3e8e66f1	0.27812913
128	0xbe81539a	-0.25259095
129	0xbcf297f0	-0.029613465
130	0xbe726bd8	-0.23673952
131	0x3d051d3c	0.032498583
132	0x3c3776f9	0.011197799
133	0xbea96334	-0.33083498
134	0x3e3a6b3e	0.18204972
135	0xbe8e847d	-0.27835456
136	0x3d7f6f36	0.06236192
137	0x3e4a4b6e	0.19755337
138	0x3e9a0e07	0.30088827
139	0xbe76165b	-0.24031965
140	0xbe8e8adc	-0.27840316
141	0x3e9dfbea	0.30856258
142	0xbe38bdcb	-0.1804115
143	0x3e90de98	0.28294826
144	0xbebd3c5b	-0.3696011
145	0x3ea578d7	0.32318756
146	0x3d6f6803	0.058448803
147	0xbcd39ed0	-0.025832564
148	0x3e4b779b	0.19869845
149	0x3ca7c547	0.020479811
150	0x3e9bfb26	0.3046505
151	0x3e75bb24	0.2399717
152	0x3e134ed8	0.14385545
153	0xbe0d5b0d	-0.13804264
154	0x3e2701f5	0.1630934
155	0x3e7fd9b0	0.24985385
156	0x3e2cd5ca	0.16878429
157	0xbe5256d8	-0.20540941
158	0x3e8528bc	0.2600764
159	0x3be7c31d	0.00707282
160	0xbe858229	-0.26075867
161	0x3e882cfb	0.26596817
162	0xbea6e112	-0.3259359
163	0xbead493f	-0.33844945
164	0x3e062f13	0.13103895
165	0xbded1dfa	-0.11577983
166	0xbda6a095	-0.08136097
167	0xbe4bb7f5	-0.19894393
168	0x3d69f708	0.057120353
169	0xbe2efa6e	-0.17087719
170	0x3dcdb634	0.10044518
171	0xbc3fa425	-0.01169685
172	0xbe274bee	-0.16337559
173	0x3ea0164c	0.3126701
174	0xbe370831	-0.17874219
175	0xbddf48dd	-0.109025694
176	0x3dffc509	0.12488753
177	0xbe0decca	-0.13859859
178	0x3e4f1a86	0.20224962
179	0x3e0fb620	0.14034319
180	0x3eaf8616	0.34281987
181	0xbe13b8ba	-0.14425936
182	0x3dabf78a	0.08396824
183	0x3e8cbbc9	0.2748702
184	0x3e0cd8e0	0.13754606
185	0xbe537341	-0.20649435
186	0x3e9e4a4c	0.3091606
187	0x3eade292	0.33961922
188	0xbcc6e86f	-0.024280755
189	0xbd809cbc	-0.06279895
190	0xbdfe02c5	-0.12402872
191	0xbe6aab38	-0.22916877
192	0xbe98e191	-0.29859594
193	0x3e8c6ee3	0.2742835
194	0x3ea22bad	0.31673947
195	0x3e20bacf	0.15696262
196	0x3b2091ed	0.002450104
197	0x3d8670f8	0.06564516
198	0xbeafb271	-0.34315827
199	0x3dbf3b93	0.09337535
200	0xbe00f89f	-0.12594841
201	0x3e951405	0.29116836
202	0x3dc61868	0.09672624
203	0x3ea9ea61	0.3318663
204	0xbca3ac0a	-0.019979496
205	0xbea2e760	-0.3181715
206	0x3cd36f80	0.025810003
207	0xbdd72481	-0.105050094
208	0x3dbe7873	0.093003176
209	0xbe5cfa82	-0.21579936
210	0x3df3495c	0.118792266
211	0x3d72875c	0.05921112
212	0xbeb343ec	-0.35012758
213	0x3dd3f1e4	0.10348871
214	0x3e82ce7a	0.25548154
215	0x3d34e2aa	0.044161476
216	0xbe923d54	-0.28562415
217	0xbdaffdf1	-0.08593357
218	0x3be4335f	0.0069641317
219	0xbe8b1a00	-0.27168274
220	0xbe721f91	-0.23644854
221	0xbe1d2b48	-0.15348542
222	0x3d940c92	0.0722896
223	0x3e9510b9	0.2911432
224	0x3e9b4139	0.30323198
225	0x3eafaded	0.34312382
226	0x3e81496f	0.25251338
227	0x3d15d0bf	0.03657603
228	0xbe9de0b1	-0.30835488
229	0x3e568cde	0.20952174
230	0xbe947b27	-0.29000208
231	0x3dc91f5c	0.098204345
232	0x3eab9194	0.33509505
233	0xbe2babac	-0.16764706
234	0xbdf4a065	-0.11944655
235	0x3e998827	0.29986688
236	0x3ce503db	0.02795594
237	0xbcdb9174	-0.026802756
238	0xbde081ca	-0.10962255
239	0x3dc91026	0.09817533
240	0xbcd7cc67	-0.026342584
241	0xbe7c600f	-0.24646018
242	0xbe4aaaa5	-0.19791658
243	0xbe9d02db	-0.3066624
244	0xbda6b774	-0.0814046
245	0x3e511d62	0.20421365
246	0x3db26a6e	0.08711706
247	0x3e97d2cc	0.29653013
248	0x3e28fc06	0.1650239
249	0xbe59c200	-0.21265411
250	0x3c5482db	0.0129706515
251	0xbe04142e	-0.12898323
252	0x3e398966	0.1811882
253	0x3e9da9ee	0.3079371
254	0x3e9295dd	0.28629962
255	0x3ea5da79	0.32393244

arith.constant9 f4 [32, 512]
0	0xbd254884	-0.04035236
1	0xbdc7503a	-0.09732099
2	0xbde25446	-0.1105123
3	0xbd031c38	-0.032009333
4	0xbd7b527b	-0.061357956
5	0xbd360ce4	-0.044445887
6	0xbdb27fc3	-0.08715775
7	0xbdc6f9bc	-0.09715602
8	0x3dad8c1d	0.0847399
9	0x3d86b7d8	0.06578034
10	0xbdd47b18	-0.10375041
11	0xbdbbc312	-0.09168066
12	0xbd9df4d4	-0.07712713
13	0xbdb58269	-0.088627644
14	0x3d30e7d2	0.04318983
15	0xbcf7de6a	-0.030257422
16	0x3d8edde9	0.0697592
17	0xbd5634f2	-0.052296586
18	0x3dbc69bc	0.09199855
19	0xbd33299d	-0.043740857
20	0x3d048133	0.032349776
21	0x3d3750be	0.044754736
22	0xbd887a2c	-0.066639274
23	0xbc22dc60	-0.009940237
24	0x3cc62adc	0.024190359
25	0xbcfee258	-0.031113788
26	0xbcc5d1d0	-0.024147898
27	0x3cc07ba3	0.023496455
28	0x3d207aee	0.039179735
29	0xbdd2a86c	-0.1028603
30	0x3ca8e964	0.020619102
31	0xbd77bb96	-0.06048163
32	0xbd9c6598	-0.07636565
33	0xbde19faf	-0.11016785
34	0x3dc687c0	0.09693861
35	0xbd9bdfd2	-0.0761105
36	0x3d2133ec	0.039356157
37	0x3d711cca	0.058865346
38	0xbd31222e	-0.043245487
39	0x3c136660	0.008996576
40	0xbd667f50	-0.05627376
41	0x3daa5e8b	0.08318814
42	0x3d9b0c23	0.07570674
43	0xbd91c3ce	-0.07117425
44	0x3dd1f151	0.102511056
45	0x3d2cc778	0.042182416
46	0xbdceaaca	-0.10091169
47	0x3c6c7211	0.014431492
48	0xbd4a341f	-0.049366113
49	0xbd8c178f	-0.06840431
50	0x3db3f941	0.08787776
51	0x3c623828	0.013807334
52	0xbdc086f6	-0.09400742
53	0x3d863f21	0.0655501
54	0xbd6602d0	-0.056155026
55	0x3c1b8268	0.0094915405
56	0xbd72f4e1	-0.059315566
57	0x3c705d4e	0.014670683
58	0xbd60b328	-0.054858357
59	0xbd7a38ed	-0.061089445
60	0x3cd1bce4	0.025602765
61	0x3d101a79	0.035181496
62	0xbd8a62e8	-0.06757146
63	0xbd0409f7	-0.032236066
64	0xbd5f9a5b	-0.054590564
65	0xbd185c70	-0.03719753
66	0xbd85c512	-0.06531729
67	0xbc207d60	-0.009795517
68	0x3d4095d7	0.0470179
69	0xbd86aed6	-0.06576316
70	0xbdc95899	-0.09831352
71	0x3d78c482	0.06073428
72	0x3d5f76ce	0.05455666
73	0xbd9557f7	-0.072921686
74	0x3bfdfa80	0.007750809
75	0x3d5dfe98	0.054197878
76	0x3d9b2341	0.075750835
77	0xbdb4455e	-0.08802293
78	0x3cd09414	0.025461234
79	0xbd95ed8e	-0.073207006
80	0x3d844e6f	0.064602725
81	0xbd344986	-0.04401543
82	0x3d884e37	0.06655543
83	0x3d3c17e6	0.04592123
84	0xbdc17cce	-0.09447633
85	0xbd88f83e	-0.066879734
86	0xbcfe3c53	-0.031034624
87	0x3c4b82fc	0.012421366
88	0xbd9fddaa	-0.07805951
89	0xbdd482dd	-0.10376523
90	0x3d8dbbd3	0.0692059
91	0xbbe3a170	-0.006946735
92	0xbd1c35b8	-0.038137168
93	0xbcbb64ee	-0.022875275
94	0x3d2cf30a	0.042223968
95	0x3d5720f7	0.052521672
96	0x3d3d25be	0.046178572
97	0x3db75c9f	0.08953213
98	0xbdb76ed4	-0.08956686
99	0xbc0b9f60	-0.008521885
100	0x3da4b55d	0.08042405
101	0xbcf754bc	-0.030191772
102	0xbd89c9b4	-0.06727925
103	0x3dc6b5d1	0.097026475
104	0xbd89fd64	-0.067377836
105	0x3dc0bf82	0.09411527
106	0x3dc272cd	0.09494553
107	0x3d877592	0.06614222
108	0x3b9181b0	0.004440509
109	0xbd9cf652	-0.07664169
110	0xbd1ed744	-0.038779512
111	0x3d2eecfc	0.042706475
112	0x3d8ed58f	0.06974327
113	0x3d28ce22	0.04121221
114	0xbd13a15a	-0.03604255
115	0xbcc14514	-0.02359251
116	0xbdd16a74	-0.102253824
117	0x3c88902d	0.01667031
118	0xbdb72914	-0.08943382
119	0x3cd00cbc	0.025396697
120	0xbdbb74da	-0.09153147
121	0x3db582f4	0.08862868
122	0x3cfb4d64	0.030676551
123	0x3c37f7a3	0.011228475
124	0x3d2c1b7e	0.042018406
125	0x3d7b1ee2	0.06130875
126	0x3dc7f4f9	0.09763522
127	0xbd40f991	-0.047113005
128	0x3da73ceb	0.08165916
129	0xbdb55ef7	-0.08856004
130	0xbcbd4531	-0.023104282
131	0x3dbda93c	0.092607945
132	0x3dcad311	0.09903539
133	0xbcd4d9fc	-0.02598285
134	0xbcd6a369	-0.026200967
135	0xbd4a0dd1	-0.049329583
136	0xbd9dbd5a	-0.077021316
137	0xbdca9083	-0.09890845
138	0xbdd074dd	-0.1017854
139	0x3d42ee9f	0.047590848
140	0xbdd4b930	-0.10386884
141	0xbd1469ad	-0.036233593
142	0x3d6783aa	0.05652205
143	0xbcd517bc	-0.026012294
144	0xbd302f8e	-0.0430141
145	0x3d0e32d9	0.03471646
146	0xbd9abaad	-0.07555137
147	0xbc21e9e8	-0.009882428
148	0xbd95d005	-0.07315067
149	0x3d87b725	0.06626729
150	0xbd0f2f16	-0.034957014
151	0xbdd66106	-0.104677245
152	0x3cd23ce4	0.0256638
153	0x3d18c5e2	0.03729809
154	0x3d845027	0.064606
155	0x3c9e4834	0.019321539
156	0xbcdcf778	-0.026973471
157	0xbd83d941	-0.06437922
158	0xbdb35fcb	-0.087585054
159	0x3cc6623f	0.02421677
160	0x3dd04201	0.10168839
161	0xbd9b646c	-0.07587513
162	0x3d43bcc4	0.047787443
163	0x3d908b97	0.07057875
164	0xbc5dadeb	-0.013530235
165	0x3d83e04b	0.06439265
166	0x3db87749	0.09007127
167	0x3d0070f2	0.031357713
168	0x3dcb2e55	0.099209465
169	0xbd039679	-0.032125924
170	0x3d9669e9	0.073444195
171	0x3da6b1e9	0.081394024
172	0x3c80e430	0.015733808
173	0xbb452f52	-0.003008802
174	0x3b9a04e0	0.004700288
175	0xbd8205d3	-0.06348767
176	0x3aa8a5c0	0.001286678
177	0xbd39e3a8	-0.045383126
178	0x3ce97f3f	0.028503058
179	0x3d0f6642	0.03500963
180	0xbdb829e8	-0.08992368
181	0xbbe84bad	-0.0070890994
182	0xbce44eb4	-0.02786956
183	0xbda90203	-0.08252337
184	0x3da88f63	0.08230474
185	0xbd8ffddd	-0.070308425
186	0xbdaf09e7	-0.085468106
187	0xbd97ece3	-0.074182294
188	0x3d8fed91	0.07027734
189	0x3dc89151	0.09793342
190	0xbd4f1b40	-0.050563097
191	0x3c16768c	0.009183537
192	0xbc1fd1a8	-0.009754576
193	0xbd0fec06	-0.0351372
194	0xbc9e9c7c	-0.019361727
195	0xbdae4bac	-0.08510527
196	0xbda4919b	-0.080355845
197	0x3d71484a	0.05890683
198	0x3db7f1f5	0.089816965
199	0x3aecf940	0.0018079653
200	0x3d2285a6	0.03967824
201	0x3d93f1cb	0.07223853
202	0x3d3faeee	0.046797685
203	0x3d5179fa	0.051141717
204	0x3dce2211	0.100650914
205	0xbd847c35	-0.06469003
206	0xbdcb9817	-0.09941118
207	0xbd5e7427	-0.05430999
208	0xbd3061a7	-0.04306188
209	0x3d43a82d	0.047767807
210	0xbddeed12	-0.10885061
211	0x3d757f46	0.05993583
212	0x3d1057b2	0.035239883
213	0x3dc8a045	0.09796194
214	0x3db46100	0.08807564
215	0xbbb2b2f0	-0.00545346
216	0x3dbcd867	0.09220963
217	0xbc961f07	-0.018325342
218	0x3d112996	0.03544005
219	0xbdd12e83	-0.102139495
220	0x3d12906a	0.035782255
221	0xbd1a9f6b	-0.03774969
222	0xbc80f618	-0.015742347
223	0xbbc33c90	-0.0059581473
224	0x3d40bad2	0.047053166
225	0x3bc3487c	0.0059595685
226	0xbd401fc3	-0.04690529
227	0x3d445eda	0.04794202
228	0xbdb7f677	-0.08982556
229	0x3c414bb6	0.011797836
230	0xbc8e0127	-0.017334534
231	0x3c85df24	0.016341753
232	0x3d380242	0.04492403
233	0x3bafed7b	0.005368886
234	0xbd695887	-0.056969192
235	0xbdb6dc73	-0.08928766
236	0xbdcc4b8b	-0.09975346
237	0xbd5efc10	-0.054439604
238	0x3cc03b7c	0.023465864
239	0x3d23437c	0.03985928
240	0xbc96ec2c	-0.018423162
241	0xbd934607	-0.07191091
242	0xbdb42b6e	-0.08797346
243	0x3d7c43ce	0.0615881
244	0xbdaabc92	-0.08336748
245	0xbc955cf0	-0.018232793
246	0x3d997b99	0.074942775
247	0xbd5dd99e	-0.054162614
248	0x3dacc87f	0.08436679
249	0x3db62cb1	0.08895243
250	0x3dcf3fab	0.101195656
251	0xbcb8f930	-0.02257976
252	0xbdca0b37	-0.0986542
253	0x3d1fe951	0.039040867
254	0xbce1a464	-0.027544208
255	0xbd3dfd6a	-0.046384253

arith.constant10 f4 [2]
0	0x3d1c30b1	0.038132373
1	0x3d1b257d	0.03787755

arith.constant11 f4 [32]
0	0xbbc813cb	-0.006105875
1	0xbc37f571	-0.011227951
2	0x00000000	0.0
3	0x3cf5f1dd	0.030022556
4	0xbc6bdd53	-0.0143960295
5	0x00000000	0.0
6	0x3c829105	0.015938291
7	0xbc6b3101	-0.014354945
8	0xbc09479d	-0.00837889
9	0xbc3f1654	-0.011663038
10	0x3c74009a	0.014892722
11	0x3cc9545c	0.024576358
12	0x3d265248	0.040605813
13	0xbc062ce0	-0.00818941
14	0xbb9f9fd9	-0.0048713502
15	0xbc155e62	-0.009116741
16	0xbc74c62f	-0.014939829
17	0xbbc4a37e	-0.006000935
18	0xbbe4292f	-0.0069629173
19	0xbc253150	-0.010082558
20	0xbbabed6e	-0.0052468097
21	0xbc923ad6	-0.01785032
22	0xbc28a77c	-0.010293838
23	0xbbc4b6b1	-0.006003224
24	0x00000000	0.0
25	0xbc1b674d	-0.009485078
26	0x3d21e32e	0.039523296
27	0xbc0bc1a0	-0.0085300505
28	0x3d320c8b	0.043468993
29	0xbbfa724d	-0.0076430202
30	0x3d63f367	0.05565205
31	0xbc0d24f9	-0.008614772

arith.constant12 f4 [16]
0	0xbc0389ef	-0.008028491
1	0x3cc93944	0.02456344
2	0x3d354f4f	0.044265088
3	0x00000000	0.0
4	0xbb9f7ee6	-0.0048674224
5	0xbb95aa48	-0.0045674182
6	0xbd2000d7	-0.0390633
7	0x3d1c5388	0.0381656
8	0x3d28d9ea	0.041223444
9	0x3cc84447	0.02444662
10	0x00000000	0.0
11	0xbc79dcca	-0.015250394
12	0xbc1e88d3	-0.009676176
13	0xbc2c3f89	-0.010513195
14	0xbc0af362	-0.008480879
15	0xbcb6cab3	-0.022313451
