case_studies/health_wearable/firmware/firmware/ecg_classifier.tflite (tflite, 64968 bytes, 5 tensors)

tfl.pseudo_qconst1 i1 [5, 32]
000000 25 c5 3e ea b7 38 12 31 b8 1a 1c 2c fc d4 03 0f
       37 -59 62 -22 -73 56 18 49 -72 26 28 44 -4 -44 3 15
000010 ed 31 b7 25 df ee 2c 81 e5 f0 1a d0 da 10 16 eb
       -19 49 -73 37 -33 -18 44 -127 -27 -16 26 -48 -38 16 22 -21
000020 18 e1 e6 f2 d1 d7 b3 ce 12 d8 00 c6 01 09 ef 0b
       24 -31 -26 -14 -47 -41 -77 -50 18 -40 0 -58 1 9 -17 11
000030 13 cd 0f e1 f6 f8 d6 02 eb 07 dc f4 f5 12 09 81
       19 -51 15 -31 -10 -8 -42 2 -21 7 -36 -12 -11 18 9 -127
000040 81 1f c0 16 13 cb 16 c9 ac 1b f9 27 16 e8 de 9d
       -127 31 -64 22 19 -53 22 -55 -84 27 -7 39 22 -24 -34 -99
000050 fa ad 12 b5 15 17 d9 d4 04 1e bf d3 e3 03 0c 1a
       -6 -83 18 -75 21 23 -39 -44 4 30 -65 -45 -29 3 12 26
000060 dd fd 3d 19 25 47 29 3f f1 de 31 0b c6 db e4 c4
       -35 -3 61 25 37 71 41 63 -15 -34 49 11 -58 -37 -28 -60
000070 1e 06 81 0b fd 33 3e 0e 06 29 fd 18 39 2a 28 2e
       30 6 -127 11 -3 51 62 14 6 41 -3 24 57 42 40 46
000080 b8 9a fc 02 3d e5 81 c5 38 4d 3d d9 b2 3b 7b 35
       -72 -102 -4 2 61 -27 -127 -59 56 77 61 -39 -78 59 123 53
000090 b3 dc 81 58 3c b6 d9 21 f6 42 39 4e c9 c5 18 8a
       -77 -36 -127 88 60 -74 -39 33 -10 66 57 78 -55 -59 24 -118

tfl.pseudo_qconst3 i1 [32, 1408]
000000 05 e5 04 e7 f1 04 37 fa 06 1b 06 0d 00 dd 13 09
       5 -27 4 -25 -15 4 55 -6 6 27 6 13 0 -35 19 9
000010 f6 11 04 03 fd 13 fd e2 0f e3 ef 0d 00 fd 13 01
       -10 17 4 3 -3 19 -3 -30 15 -29 -17 13 0 -3 19 1
000020 01 05 fe f4 14 d1 f2 01 ea f7 fc 15 12 f9 21 d0
       1 5 -2 -12 20 -47 -14 1 -22 -9 -4 21 18 -7 33 -48
000030 d0 f9 fa 0c 13 0e 0b 0f e5 04 04 fe fa fd 00 12
       -48 -7 -6 12 19 14 11 15 -27 4 4 -2 -6 -3 0 18
000040 05 fb 01 df 2b 09 33 08 f9 f3 04 f9 08 09 0c 0a
       5 -5 1 -33 43 9 51 8 -7 -13 4 -7 8 9 12 10
000050 d6 0e 06 03 f0 f4 fc bc 1f de 02 02 0a dd 06 fc
       -42 14 6 3 -16 -12 -4 -68 31 -34 2 2 10 -35 6 -4
000060 eb 14 fc eb fb f0 fd f3 12 fe fe 3e f2 e2 17 02
       -21 20 -4 -21 -5 -16 -3 -13 18 -2 -2 62 -14 -30 23 2
000070 f0 0a ef f1 fd 05 03 04 da 04 09 01 16 00 f0 4d
       -16 10 -17 -15 -3 5 3 4 -38 4 9 1 22 0 -16 77
000080 05 dc ff f9 0d 12 16 0f f4 0c ea f9 1c 27 03 1a
       5 -36 -1 -7 13 18 22 15 -12 12 -22 -7 28 39 3 26
000090 f1 04 05 16 15 f3 00 d4 2b a9 05 03 0c f6 30 05
       -15 4 5 22 21 -13 0 -44 43 -87 5 3 12 -10 48 5
0000a0 e5 01 0d e5 02 f2 0f 0c fc f7 20 28 ef d4 10 f1
       -27 1 13 -27 2 -14 15 12 -4 -9 32 40 -17 -44 16 -15
0000b0 f8 f6 fc 08 f8 0e f7 ec 1c 04 18 ff 12 13 01 7f
       -8 -10 -4 8 -8 14 -9 -20 28 4 24 -1 18 19 1 127
0000c0 08 06 03 f6 2e 0d 09 11 03 0d eb f2 1a f1 dd 08
       8 6 3 -10 46 13 9 17 3 13 -21 -14 26 -15 -35 8
0000d0 ff 07 01 41 0d fb 0d e7 17 db 0d f9 1d eb 38 fa
       -1 7 1 65 13 -5 13 -25 23 -37 13 -7 29 -21 56 -6
0000e0 fe ff fb e4 06 fc 16 17 f4 f2 f1 4a e6 cf 08 00
       -2 -1 -5 -28 6 -4 22 23 -12 -14 -15 74 -26 -49 8 0
0000f0 0c 2c 16 ea 07 0c 01 e8 d5 20 ff 00 0f 14 f8 26
       12 44 22 -22 7 12 1 -24 -43 32 -1 0 15 20 -8 38

tfl.pseudo_qconst5 i1 [64, 1, 3, 32]
000000 37 88 a2 c8 ee d5 a3 a4 0e d2 9e 2f dc 21 e1 04
       55 -120 -94 -56 -18 -43 -93 -92 14 -46 -98 47 -36 33 -31 4
000010 f4 a1 3d 19 df 8c c4 e9 c0 99 f8 2b b9 29 e4 11
       -12 -95 61 25 -33 -116 -60 -23 -64 -103 -8 43 -71 41 -28 17
000020 ae 9e de d9 e8 f9 bf 34 00 11 b0 13 27 8d d7 d0
       -82 -98 -34 -39 -24 -7 -65 52 0 17 -80 19 39 -115 -41 -48
000030 bf 4c ac ff 3d a3 08 cc d6 14 c5 29 23 14 d8 15
       -65 76 -84 -1 61 -93 8 -52 -42 20 -59 41 35 20 -40 21
000040 df 81 02 1b c3 22 2f f4 39 bd 1e 1a 37 12 cb c8
       -33 -127 2 27 -61 34 47 -12 57 -67 30 26 55 18 -53 -56
000050 07 a1 bc 1a b1 28 0b d2 13 11 86 93 1d af 8a a2
       7 -95 -68 26 -79 40 11 -46 19 17 -122 -109 29 -81 -118 -94
000060 10 e0 e6 0c f3 18 10 0e 01 ef ff f1 03 fc f5 08
       16 -32 -26 12 -13 24 16 14 1 -17 -1 -15 3 -4 -11 8
000070 1c 1e ea e4 1a 20 f7 f5 05 14 e6 19 0e 17 02 f8
       28 30 -22 -28 26 32 -9 -11 5 20 -26 25 14 23 2 -8
000080 e3 eb ed b3 e3 d9 ce f6 f9 fd df c1 db d5 e8 f6
       -29 -21 -19 -77 -29 -39 -50 -10 -7 -3 -33 -63 -37 -43 -24 -10
000090 1a e6 f7 0b f6 10 fe e8 cb f4 ee 07 f6 0f ee de
       26 -26 -9 11 -10 16 -2 -24 -53 -12 -18 7 -10 15 -18 -34
0000a0 e7 03 dc 08 e8 f8 f4 f6 f3 e0 c1 03 bc 81 f4 08
       -25 3 -36 8 -24 -8 -12 -10 -13 -32 -63 3 -68 -127 -12 8
0000b0 ec ce 02 e9 0c 01 e9 fc ec c9 a4 f0 f1 f8 cb ed
       -20 -50 2 -23 12 1 -23 -4 -20 -55 -92 -16 -15 -8 -53 -19
0000c0 e3 fa 0f e4 1a 05 35 29 e1 37 bb e9 15 32 d7 ba
       -29 -6 15 -28 26 5 53 41 -31 55 -69 -23 21 50 -41 -70
0000d0 1b bb 01 eb f0 e5 1c d6 15 04 bc db 30 c3 f6 1c
       27 -69 1 -21 -16 -27 28 -42 21 4 -68 -37 48 -61 -10 28
0000e0 c7 b5 f6 de e5 01 18 08 d7 a3 24 87 c9 be ba 95
       -57 -75 -10 -34 -27 1 24 8 -41 -93 36 -121 -55 -66 -70 -107
0000f0 e3 ff 13 90 b9 2f 24 d6 dd b3 48 b6 ed 9e 20 13
       -29 -1 19 -112 -71 47 36 -42 -35 -77 72 -74 -19 -98 32 19

tfl.pseudo_qconst7 i1 [32, 1, 3, 16]
000000 53 81 36 17 5c 16 3d 38 12 29 1a 77 ec 29 dc 32
       83 -127 54 23 92 22 61 56 18 41 26 119 -20 41 -36 50
000010 1f 96 fc f2 29 fa 0a 08 38 32 23 0a c2 e6 2c 1e
       31 -106 -4 -14 41 -6 10 8 56 50 35 10 -62 -26 44 30
000020 0b f7 12 f5 35 3f 01 2f 23 d1 27 c4 fe 91 0d 0c
       11 -9 18 -11 53 63 1 47 35 -47 39 -60 -2 -111 13 12
000030 02 32 db 10 d0 e1 1e f9 de e2 18 c8 09 0c 17 dc
       2 50 -37 16 -48 -31 30 -7 -34 -30 24 -56 9 12 23 -36
000040 f2 f0 e1 e0 cc 0d e8 ff 18 0e c4 13 10 25 f2 e2
       -14 -16 -31 -32 -52 13 -24 -1 24 14 -60 19 16 37 -14 -30
000050 d3 81 36 db e8 53 8c 1e 27 48 1b 3e fa 2c 13 39
       -45 -127 54 -37 -24 83 -116 30 39 72 27 62 -6 44 19 57
000060 de f9 96 ed d5 81 f0 b1 d0 01 c7 e4 05 f5 de a2
       -34 -7 -106 -19 -43 -127 -16 -79 -48 1 -57 -28 5 -11 -34 -94
000070 f6 0f db 20 0e c6 ec 0e d5 0a d8 f3 11 13 d3 f1
       -10 15 -37 32 14 -58 -20 14 -43 10 -40 -13 17 19 -45 -15
000080 22 01 06 18 0c fa 00 eb 39 1e dc 04 21 2b f4 07
       34 1 6 24 12 -6 0 -21 57 30 -36 4 33 43 -12 7
000090 f8 b8 db f9 e0 01 e5 01 d7 4e e6 34 03 37 f1 d7
       -8 -72 -37 -7 -32 1 -27 1 -41 78 -26 52 3 55 -15 -41
0000a0 ad ab 05 b6 f1 15 ba 18 fe 1e f6 2a 09 28 ef 01
       -83 -85 5 -74 -15 21 -70 24 -2 30 -10 42 9 40 -17 1
0000b0 81 e8 24 b8 dc 27 aa 0e 16 d4 2d 12 04 eb 1f 1e
       -127 -24 36 -72 -36 39 -86 14 22 -44 45 18 4 -21 31 30
0000c0 c8 7c 22 ec fe f7 ca d6 1a c4 22 e8 25 04 32 f4
       -56 124 34 -20 -2 -9 -54 -42 26 -60 34 -24 37 4 50 -12
0000d0 03 4e 02 04 fb df eb d7 cd 03 0d 08 00 2a e5 c8
       3 78 2 4 -5 -33 -21 -41 -51 3 13 8 0 42 -27 -56
0000e0 c2 22 dd d0 be d7 0c 81 c7 1a fd 04 f9 3b 0b eb
       -62 34 -35 -48 -66 -41 12 -127 -57 26 -3 4 -7 59 11 -21
0000f0 d0 c5 f6 f6 cb 05 81 d2 e5 27 d6 29 0c 3a 03 fb
       -48 -59 -10 -10 -53 5 -127 -46 -27 39 -42 41 12 58 3 -5

tfl.pseudo_qconst9 i1 [16, 1, 3, 1]
000000 81 a4 07 7f e3 99 e4 1b 7f 32 81 96 4c 04 81 88
       -127 -92 7 127 -29 -103 -28 27 127 50 -127 -106 76 4 -127 -120
000010 70 7f 81 b9 07 e1 7f a4 d9 69 7f 9b dc 7f 7f 77
       112 127 -127 -71 7 -31 127 -92 -39 105 127 -101 -36 127 127 119
000020 e3 81 2c 51 d4 eb 7f d6 9b 7f 45 81 42 6f 7f 28
       -29 -127 44 81 -44 -21 127 -42 -101 127 69 -127 66 111 127 40
